model_cnn.pth (torch, 435171 bytes, 8 tensors)

conv1.weight f4 [6, 3, 5, 5]
0.05930784 0.08829961 0.038807116 0.052969094 0.028525217 0.09248254 -0.04749138 0.0717244
-0.09701106 -0.08917001 0.0690322 0.02366736 -0.06747783 -0.056144867 -0.11097712 -0.083041616
0.00242782 0.06839758 0.052180573 0.035236005 0.05289461 0.0813736 -0.021427723 0.045090746
0.04253779 0.019800274 -0.057953615 -0.03812986 0.08310268 0.018229483 0.037099004 -0.08058465
-0.049035493 0.050990634 -0.082939826 -0.035989124 0.028593766 -0.07963049 0.037065733 0.035681788
0.09583058 -0.110746294 -0.11539247 -0.060012516 -0.026895758 0.037043653 0.0068791513 -0.10774424
0.11350056 -0.10410367 -0.08796363 0.01187364 0.025194928 0.037363444 -0.07771235 -0.076688044
-0.080891795 -0.044067077 -0.031149918 -0.07548298 0.08254371 0.10275755 -0.009610616 0.11096794
-0.00311251 -0.025961287 0.063202605 -0.036391836 0.05993937 0.111325726 0.047619905 -0.00813512
-0.041858383 0.093158156 -0.036634956 0.0032446138 0.115097195 0.022625672 -0.01937434 0.023162594
0.030222591 0.09805158 0.076364495 -0.0950041 0.065458655 -0.09778502 0.023390956 -0.019007515
-0.10354332 0.021690954 -0.014908281 -0.06682338 0.0864079 0.06395853 0.005475689 0.0044850283
-0.03535506 0.07931231 -0.06282719 0.078324966 -0.06867667 0.04304323 0.033985503 0.07416625
0.097321756 0.015293443 0.033129588 0.05768981 0.11422102 -0.048727967 0.008642351 -0.016736906
0.065130435 -0.056351714 -0.04894971 0.054109834 0.03784821 0.04093641 -0.110698335 0.10326463
-0.054179803 0.0056094583 -0.081548735 0.02721778 -0.09311177 0.0373034 0.08901563 0.035369612
-0.026714375 -0.10651167 0.024277154 -0.01711462 -0.014231974 -0.03673504 0.0068322537 0.08190275
-0.039961014 -0.07029202 0.032590423 0.05127875 0.016452739 0.05667569 -0.06053814 -0.07006587
-0.075524166 -0.051853143 0.040645044 0.007530392 -0.0718333 -0.0802749 0.057938762 -0.028491698
-0.093278036 -0.0960241 -0.008705836 -0.115047865 0.06748691 -0.048870422 -0.09841602 0.014859112
0.076798595 0.060363278 0.019028148 0.037301295 -0.005318354 -0.074944295 -0.10030113 0.008732705
0.030067459 -0.10071085 0.08616366 -0.07339839 -0.09409674 0.029665105 0.06354228 -0.028503247
-0.08228769 0.06902453 0.036139533 -0.035138123 -0.11379137 -0.04967144 0.02624189 0.045942545
0.08636359 0.10318605 0.05287647 0.099979974 -0.10243208 0.044150192 0.075667985 0.069256194
-0.04797769 -0.04709529 0.08438856 0.107923985 -0.1143523 0.07553223 -0.003491711 0.015606626
-0.009922286 -0.015143939 0.11242714 -0.08404889 -0.07973209 -0.0089930445 -0.0075261802 -0.06989216
0.008339794 0.10068475 0.06689523 -0.029383732 -0.06029707 -0.029581495 0.021574182 0.032200236
0.009469262 0.0042987317 -0.046106048 0.020689748 -0.06183924 -0.11243063 -0.078257196 0.014278417
0.047295503 0.10906176 0.038882244 0.060772173 -0.0134157995 0.0018055273 -0.0905868 0.026711842
-0.09982724 0.016119348 -0.049737707 -0.045634456 -0.08807426 -0.097739704 0.09495859 -0.04507953
0.0088505065 -0.07765861 0.023780316 0.07902108 0.034986872 0.08759588 -0.0062481454 0.09043811
0.0027950178 0.09491243 0.08886325 0.033377044 -0.11082192 0.014757608 0.08146785 0.04156268
00000000: c7ec 723d 6dd6 b43d 36f4 1e3d 1ff6 583d
00000010: b7ad e93c 7c67 bd3d 5286 42bd 3ee4 923d
00000020: bcad c6bd c49e b6bd c160 8d3d 0de2 c13c
00000030: d131 8abd 29f8 65bd f947 e3bd b911 aabd
00000040: 101c 1f3b 0814 8c3d 4cbb 553d a153 103d
00000050: 05a8 583d 34a7 a63d 3189 afbc 13b1 383d
00000060: 1b3c 2e3d 2f34 a23c c560 6dbd 0e2e 1cbd
00000070: bd31 aa3d ff55 953c 20f5 173d 9109 a5bd
00000080: 71d9 48bd 8edb 503d 5bdc a9bd 5569 13bd
00000090: 793d ea3c 4f15 a3bd 3dd2 173d 1127 123d
000000a0: d342 c43d f4ce e2bd e352 ecbd afcf 75bd
000000b0: 7e54 dcbc 16bb 173d 816a e13b 03a9 dcbd
000000c0: fb72 e83d 4e34 d5bd 4726 b4bd a889 423c
000000d0: 9865 ce3c 690a 193d a727 9fbd 9f0e 9dbd
000000e0: 99aa a5bd ae7f 34bd 1d2e ffbc d296 9abd
000000f0: ad0c a93d 8d72 d23d d875 1dbc 2943 e33d
00000100: 41fb 4bbb c4ac d4bc 5e70 813d 9b0f 15bd
00000110: fc82 753d befe e33d 170d 433d 2b49 05bc
00000120: b273 2bbd b4c9 be3d 890e 16bd 96a3 543b
00000130: 14b8 eb3d 7959 b93c f0b6 9ebc 7bbf bd3c
00000140: 5e95 f73c 44cf c83d fd64 9c3d 8291 c2bd
00000150: 300f 863d 8343 c8bd 649e bf3c a6b5 9bbc
00000160: 850e d4bd 3ab1 b13c dd41 74bc b2da 88bd
00000170: a0f6 b03d b1fc 823d 696d b33b 25f7 923b
00000180: 78d0 10bd 7e6e a23d 8bab 80bd d768 a03d
00000190: 5ba6 8cbd 194e 303d 6234 0b3d 7ae4 973d
000001a0: a150 c73d 5991 7a3c e4b2 073d 264c 6c3d
000001b0: b6ec e93d fa96 47bd a698 0d3c d61b 89bc
000001c0: 1b63 853d 0ed1 66bd 7e7f 48bd 46a2 5d3d
000001d0: ba06 1b3d f0ac 273d cfb5 e2bd 687c d33d
000001e0: a4eb 5dbd 8ccf b73b 0603 a7bd d2f7 de3c
000001f0: 62b1 bebd 73cb 183d d44d b63d badf 103d
00000200: 1bd8 dabc ca22 dabd e2e0 c63c f633 8cbc
00000210: 3a2d 69bc 7b77 16bd 19e1 df3b a1bc a73d
00000220: 29ae 23bd 43f5 8fbd 897d 053d ab09 523d
00000230: e5c7 863c c524 683d d7f6 77bd b27e 8fbd
00000240: 6aac 9abd f663 54bd 6b7b 263d 82c1 f63b
00000250: 561d 93bd 2b67 a4bd 3251 6d3d 6c67 e9bc
00000260: 8e08 bfbd 49a8 c4bd eca2 0ebc 379e ebbd
00000270: 9436 8a3d 5a2c 48bd 578e c9bd a273 733c
00000280: 9548 9d3d 7c3f 773d ebe0 9b3c 3ec9 183d
00000290: 9645 aebb 657c 99bd ae6a cdbd 9f13 0f3c
000002a0: 0850 f63c 7d41 cebd 9376 b03d e551 96bd
000002b0: cbb5 c0bd 3c04 f33c 7422 823d a47f e9bc
000002c0: 7386 a8bd bc5c 8d3d 0c07 143d feec 0fbd
000002d0: 730b e9bd 4874 4bbd 3bf9 d63c 402e 3c3d
000002e0: 65df b03d 3553 d33d ff94 583d 4dc2 cc3d
000002f0: e9c7 d1bd d5d6 343d d1f7 9a3d 31d6 8d3d
00000300: 4184 44bd fee6 40bd e9d3 ac3d 4007 dd3d
00000310: 8a31 eabd a4b0 9a3d 31d5 64bb efb2 7f3c
00000320: 1591 22bc 491e 78bc 3340 e63d d321 acbd
00000330: 944a a3bd 9057 13bc 2d9e f6bb 9f23 8fbd
00000340: a2a3 083c ce33 ce3d 5e00 893d 27b6 f0bc
00000350: 0ffa 76bd e454 f2bc 57bc b03c 65e4 033d
00000360: f724 1b3c 60dc 8c3b b2d9 3cbd 8c7d a93c
00000370: 254b 7dbd 0842 e6bd 4f45 a0bd 06f0 693c
00000380: eeb8 413d c65b df3d fd42 1f3d 3eec 783d
00000390: f1cd 5bbc 71a7 ec3a 9285 b9bd cbd2 da3c
000003a0: 3972 ccbd b90c 843c c4b9 4bbd 32eb 3abd
000003b0: 4760 b4bd c12b c8bd a679 c23d 50a5 38bd
000003c0: b701 113c 7a0b 9fbd f0ce c23c ced5 a13d
000003d0: 654e 0f3d 7865 b33d 3ebd ccbb 9e37 b93d
000003e0: 9e2c 373b 7361 c23d f0fd b53d 5eb6 083d
000003f0: 9af6 e2bd e5c9 713c 9ed8 a63d a13d 2a3d

conv1.bias f4 [6]
0.03893041 -0.058715623 0.0096171 0.0275908 -0.06072113 -0.091912016
00000000: 7e75 1f3d cb7f 70bd 0a91 1d3c 1a06 e23c
00000010: b8b6 78bd 5e3c bcbd

conv2.weight f4 [16, 6, 5, 5]
-0.03110981 -0.050361138 0.016654057 0.017359924 0.01683106 -0.035928592 -0.02501459 0.067729585
-0.064039215 0.010470265 -0.061709158 0.051433496 -0.08067106 -0.034362476 0.04066496 -0.029337814
0.03624912 -0.044452 -0.008603632 0.008547062 0.05607242 -0.006273769 0.021559972 0.009983653
-0.018620566 0.075475715 0.005483514 -0.028354011 -0.0064785983 0.023385784 -0.036768273 0.04386382
-0.0275651 -0.037166398 -0.012326852 -0.0022478406 -0.024358753 0.052405793 -0.052502748 0.011234347
0.018583296 -0.0682639 0.05293927 -0.033204574 -0.040826067 0.045278747 -0.05647042 0.03869965
-0.039100315 -0.031745207 0.042240348 -0.051013675 -0.010963407 -0.07325674 0.030521026 0.08144235
0.010552716 0.06001955 0.065559134 -0.042033143 0.043842465 0.019728653 0.041165218 0.06796318
0.054462615 -0.06295105 0.06081326 -0.07815253 -0.041926652 -0.077769 0.017969945 -0.08150125
-0.03468812 -0.044888757 0.061867513 0.06949656 -0.038203627 0.029551618 -0.05511747 0.02871698
0.045236435 -0.066112936 0.0615153 0.013024318 -0.0058545806 -0.039024103 -0.054835007 -0.01885876
0.07934 0.07345071 0.054822195 -0.023520524 0.0013849457 -0.0672021 0.030759241 -0.05674891
0.057754304 0.015586119 -0.07738069 0.070376106 -0.018272303 -0.056187898 0.07079062 0.025914053
-0.05326501 0.065235 0.049226817 -0.048505493 0.07747922 0.06490382 0.036459625 0.019245332
0.07688009 0.05424639 0.056845732 0.024970625 0.031236168 0.063350774 -0.05234086 0.050430555
-0.029798916 0.027132588 -0.05328755 0.04471708 -0.022462055 -0.030272435 0.06761134 0.018239804
0.00051731063 -0.076436445 0.03645908 0.004286871 0.013350221 -0.055247225 0.06995806 0.05864821
0.05795752 0.067794375 -0.04098329 -0.007790057 0.007475269 0.062021095 0.016018467 -0.032615867
0.07301209 -0.006707791 -0.05555551 -0.0058856397 0.049181372 0.019725695 -0.0394148 0.0020701673
-0.06263499 0.070671014 -0.08158689 0.056058794 -0.035048362 -0.008634828 -0.008853869 -0.025480352
0.06565759 -0.019566944 0.06025469 -0.029758308 -0.05473524 -0.07564031 0.0640933 0.049008936
0.00041432155 -0.063444994 -0.0070738248 -0.06519015 0.036956485 0.009469954 -0.007338914 -0.00815833
-0.04280684 0.05901957 -0.068967514 -0.022870136 0.08068932 -0.07049522 -0.015203831 -0.022040423
0.035997026 -0.03918348 -0.06520486 -0.038362026 0.028326904 0.006066564 -0.05426392 0.02638296
0.0007592829 0.06380285 -0.078176275 0.0011614669 0.06349684 -0.013318636 -0.06482596 0.013690891
0.071168974 0.03318236 -0.05875633 -0.046044055 -0.04405554 0.0634879 -0.05748646 0.073886134
-0.060262095 -0.07233929 0.03993685 -0.057752106 0.017975727 0.011135232 0.06041829 0.04809203
0.022382397 -0.022435112 0.06717145 -0.013482294 -0.078225225 -0.074050404 0.0135843875 0.07590137
-0.058528695 -0.024498204 0.058413353 -0.027795043 0.062238704 -0.049326215 -0.076227 0.06531804
0.03839121 -0.02501785 -0.02250784 0.04230245 -0.07241868 0.029545953 -0.029196564 0.04292752
-0.07883918 0.055378355 0.009177534 -0.067471564 0.073949024 0.08100541 0.0021138215 -0.02363674
0.044925608 -0.0058866036 -0.07538069 -0.04311509 0.04460671 -0.010167498 -0.063428916 -0.015584494
00000000: 00da febc 7b47 4ebd 176e 883c 6636 8e3c
00000010: 4be1 893c dc29 13bd 66eb ccbc cfb5 8a3d
00000020: fe26 83bd 798b 2b3c bec2 7cbd eeab 523d
00000030: de36 a5bd abbf 0cbd 4d90 263d db55 f0bc
00000040: f579 143d 4d13 36bd 40f6 0cbc fa08 0c3c
00000050: 32ac 653d 3094 cdbb 8a9e b03c 7a92 233c
00000060: 288a 98bc 0393 9a3d 0daf b33b ac46 e8bc
00000070: 6c4a d4bb 8b93 bf3c 549a 16bd 8daa 333d
00000080: 34d0 e1bc cb3b 18bd 91f6 49bc 8250 13bb
00000090: 028c c7bc 75a7 563d 1f0d 57bd 4410 383c
000000a0: ff3b 983c f2cd 8bbd d9d6 583d 8501 08bd
000000b0: 3c39 27bd 3576 393d 874d 67bd 8683 1e3d
000000c0: a727 20bd 4307 02bd 3704 2d3d b7f3 50bd
000000d0: dd9f 33bc a107 96bd 3b07 fa3c 3fcb a63d
000000e0: 4de5 2c3c 0fd7 753d de43 863d f22a 2cbd
000000f0: 2894 333d fc9d a13c dc9c 283d 4830 8b3d
00000100: 3114 5f3d 7bec 80bd 5317 793d 6f0e a0bd
00000110: 48bb 2bbd 5a45 9fbd b535 933c 21ea a6bd
00000120: 2115 0ebd 46dd 37bd ca68 7d3d 3654 8e3d
00000130: 687b 1cbd 3c16 f23c dbc2 61bd df3f eb3c
00000140: d749 393d 3866 87bd 78f7 7b3d f363 553c
00000150: c8d7 bfbb bdd7 1fbd ac9a 60bd b07d 9abc
00000160: 037d a23d 536d 963d 3d8d 603d 1dae c0bc
00000170: 1187 b53a 41a1 89bd cefa fb3c 8c71 68bd
00000180: c78f 6c3d ec5c 7f3c c479 9ebd 5921 903d
00000190: ccaf 95bc 4825 66bd acfa 903d b549 d43c
000001a0: 692c 5abd ed99 853d 0fa2 493d b2ad 46bd
000001b0: 6dad 9e3d 4bec 843d b056 153d 63a8 9d3c
000001c0: 4f73 9d3d 7631 5e3d 12d7 683d 328f cc3c
000001d0: fee2 ff3c 0dbe 813d 5f63 56bd 4590 4e3d
000001e0: db1c f4bc 2945 de3c 0c44 5abd 4229 373d
000001f0: 5802 b8bc e6fd f7bc d077 8a3d a46b 953c
00000200: 219c 073a b68a 9cbd 1e56 153d e178 8c3b
00000210: e3ba 5a3c ea4a 62bd 2c46 8f3d 1b39 703d
00000220: dd64 6d3d c7d7 8a3d 18de 27bd bc43 ffbb
00000230: 1af3 f43b d509 7e3d 2939 833c 3798 05bd
00000240: 5d87 953d 07cd dbbb 2d8e 63bd 53dc c0bb
00000250: 6872 493d c897 a13c 6a71 21bd a5ab 073b
00000260: c646 80bd f7bb 903d 0717 a7bd e89d 653d
00000270: df8e 0fbd 1879 0dbc d10f 11bc 2cbc d0bc
00000280: 7d77 863d db4a a0bc 9fcd 763d b2c7 f3bc
00000290: 0f32 60bd 4fe9 9abd 5943 833d 98bd 483d
000002a0: 4c39 d939 73ef 81bd 8bcb e7bb 6a82 85bd
000002b0: af5f 173d de27 1b3c 467b f0bb 84aa 05bc
000002c0: 3a56 2fbd 81be 713d d73e 8dbd 275a bbbc
000002d0: 7140 a53d cc5f 90bd 7d19 79bc 1e8e b4bc
000002e0: 9e71 133d db7e 20bd 208a 85bd 8021 1dbd
000002f0: d30d e83c 07ca c63b d843 5ebd 1421 d83c
00000300: 9d0a 473a 12ab 823d e21a a0bd 5d3c 983a
00000310: a20a 823d 6936 5abc 79c3 84bd c24f 603c
00000320: 0ac1 913d 3aea 073d 7aaa 70bd b198 3cbd
00000330: 9573 34bd f205 823d ec76 6bbd 9d51 973d
00000340: 63d5 76bd 9f26 94bd d394 233d 798d 6cbd
00000350: d541 933c 8c70 363c 2b79 773d 26fc 443d
00000360: 4a5b b73c d7c9 b7bc 2f91 893d d7e4 5cbc
00000370: 8c34 a0bd bda7 97bd 0d91 5e3c 2d72 9b3d
00000380: c9bb 6fbd 75b0 c8bc d742 6f3d 6eb2 e3bc
00000390: 03ee 7e3d 490a 4abd e71c 9cbd 77c5 853d
000003a0: 1a40 1d3d 3cf2 ccbc 5d62 b8bc 5545 2d3d
000003b0: 3f50 94bd 5b0a f23c a22d efbc c4d4 2f3d
000003c0: 7076 a1bd 6ad4 623d 5e5d 163c 882e 8abd
000003d0: 9672 973d 2ae6 a53d 0a88 0a3b d6a1 c1bc
000003e0: ea03 383d 69e4 c0bb 3161 9abd 7399 30bd
000003f0: 87b5 363d 9495 26bc 05e7 81bd 1b56 7fbc

conv2.bias f4 [16]
-0.07971503 0.015813064 -0.00912506 0.013520362 -0.005750316 -0.03554343 -0.04327271 -0.031714566
-0.028641196 -0.07929838 0.06345465 -0.026493667 -0.062005572 -0.007067401 -0.00739091 0.06308998
00000000: a241 a3bd 668a 813c 4781 15bc 8284 5d3c
00000010: 266d bcbb fd95 11bd ba3e 31bd 22e7 01bd
00000020: f1a0 eabc 3067 a2bd 83f4 813d 3f09 d9bc
00000030: 8ef9 7dbd a895 e7bb 722f f2bb 5235 813d

fc1.weight f4 [256, 400]
0.025354063 0.015339548 0.0291996 -0.005055636 0.028000165 -0.028200513 -0.009326917 -0.043798815
0.030828102 -0.0308518 -0.0011546254 0.012938923 -0.012879401 -0.0071795466 0.038381692 -0.041289747
0.029081268 -0.044205636 -0.023381835 0.011785048 0.039353568 -0.020283777 -0.030654712 -0.022616327
-0.007669729 0.0011449278 0.029324234 0.012657911 0.03825146 -0.022109522 0.034494966 0.01904956
-0.009418654 -0.016625537 -0.027976139 -0.0038092553 0.01235568 0.013740802 0.019593477 0.027096456
-0.021251453 0.019806696 0.04235546 -0.022735322 -0.015626192 -0.013969994 -0.043164738 0.026918698
0.0008346081 -0.0013637483 -0.037409272 -0.028576005 0.025729824 0.039216634 -0.0011493982 0.030055856
-0.029939855 -0.04312221 -0.017817706 0.008125514 0.0060077845 0.0036942125 0.028203726 0.011320281
-0.02637809 -0.04475653 0.023440296 -0.026085353 0.0105309365 0.008706719 0.01628024 -0.026325786
0.028414113 -0.020571042 -0.00900169 -0.030358678 0.017390734 0.012330562 0.04708302 0.029152447
0.015709383 -0.0046169697 -0.044976898 0.016502786 0.007440758 -0.0076669753 0.012516684 0.012266028
0.029062683 0.0043476704 0.017517447 0.017053146 -0.0014031709 -0.04905754 0.0042811334 -0.004790503
0.041246593 0.018875612 0.002253723 -0.02588225 0.012165517 -0.018396318 -0.04360905 -0.01787942
0.010659844 -0.024948705 -0.019164568 0.0041848603 0.0047647594 -0.029999083 -0.026208222 0.0476139
-0.010908849 -0.019317746 0.027299827 -0.027705748 0.020177914 -0.02786442 -0.020123696 -0.038765993
0.022022326 0.026730841 -0.02537834 0.03379742 0.0050930916 0.0042586564 -0.022110833 -0.031229252
-0.0074970783 -0.03545667 0.027604545 -0.020817995 0.029748088 0.049169004 0.024636526 -0.026540983
-0.029882187 0.013384509 0.04721594 0.022167582 -0.0036062598 -0.046242584 0.014837665 0.003747475
0.012046874 -0.04131315 -0.02912659 -0.028078008 0.043578833 0.03908333 -0.027822077 -0.03864876
0.048987057 -0.015593732 0.01310078 -0.042850967 -0.013259751 -0.03332401 -0.02120623 -0.012205541
0.007080299 -0.007111174 0.047104772 -0.025276667 0.0021261931 0.012686974 0.020498633 0.012302053
-0.011916733 -0.033216365 -0.036024626 -0.039661992 0.033491816 0.0077667236 0.0076346756 -0.049892884
-0.0032000304 0.003088677 -0.010799348 0.020395506 0.025827302 -0.037540454 0.010333592 0.04253107
0.0072968663 -0.04753945 0.020121187 0.03774423 -0.028937085 0.0076360465 0.024291832 0.006103164
-0.047944605 -0.015041447 0.016704375 -0.020097125 0.015565723 0.039506137 0.04084298 -0.029533839
0.038006146 -0.006398094 0.041104306 -6.029606e-05 -0.015713139 -0.0071461857 0.013665962 0.010067821
-0.026418705 0.023408657 -0.02113666 0.032544713 0.040483903 0.04908088 -0.03896726 0.040628295
-0.008219564 -0.03835848 0.0051835002 -0.04323389 0.03346494 0.02289598 0.011069036 0.029101247
-0.011683464 0.04653427 -0.018409068 -0.043798845 -0.02423935 0.040668666 -0.03065688 -0.039858278
-0.007934309 0.038517345 -0.007652074 0.03452884 0.0059394003 0.04882629 -0.0047572018 0.0019224882
0.040591408 0.023419505 -0.032031257 -0.02889449 0.03994396 0.038781177 0.0026351095 -0.042028636
0.04323086 0.048919495 0.017207265 -0.008951641 -0.048112985 -0.028626895 -0.0019429087 -0.02743243
00000000: 53b3 cf3c ba52 7b3c 0034 ef3c c0a9 a5bb
00000010: 9a60 e53c c304 e7bc edcf 18bc 6366 33bd
00000020: 378b fc3c eabc fcbc cd56 97ba c7fd 533c
00000030: 2004 53bc 6742 ebbb 1f36 1d3d 701f 29bd
00000040: d73b ee3c f810 35bd 438b bfbc 1316 413c
00000050: 3531 213d 2a2a a6bc 971f fbbc e045 b9bc
00000060: 5a52 fbbb 6711 963a 6039 f03c 2063 4f3c
00000070: 90ad 1c3d 071f b5bc 984a 0d3d d30d 9c3c
00000080: b350 1abc 4732 88bc 372e e5bc b3a4 79bb
00000090: 7a6f 4a3c 1a21 613c 8082 a03c 63f9 dd3c
000000a0: 8717 aebc a741 a23c eb7c 2d3d 6d3f babc
000000b0: 8002 80bc 67e2 64bc 82cd 30bd 9a84 dc3c
000000c0: 9ac9 5a3a cdbf b2ba 773a 19bd 3a18 eabc
000000d0: 5ac7 d23c 9fa1 203d 67a7 96ba b337 f63c
000000e0: 6d44 f5bc eaa0 30bd 70f6 91bc e020 053c
000000f0: f3dc c43b 9a1a 723b 800b e73c b378 393c
00000100: dd16 d8bc a052 37bd dd05 c03c f3b0 d5bc
00000110: f389 2c3c a0a6 0e3c 235e 853c 2da9 d7bc
00000120: b7c4 e83c 9a84 a8bc d37b 13bc c3b2 f8bc
00000130: 0377 8e3c 2006 4a3c 20da 403d 1dd1 ee3c
00000140: f7b0 803c f349 97bb b239 38bd da30 873c
00000150: 9ad1 f33b 403b fbbb c712 4d3c 73f7 483c
00000160: dd14 ee3c e776 8e3b c080 8f3c 0ab3 8b3c
00000170: 9aea b7ba 8ff0 48bd c048 8c3b a7f9 9cbb
00000180: 30f2 283d 07a1 9a3c 33b3 133b 0307 d4bc
00000190: e051 473c e0b3 96bc 679f 32bd dd77 92bc
000001a0: a0a6 2e3c 3a61 ccbc 03ff 9cbc 2721 893b
000001b0: b321 9c3b a3c0 f5bc a0b2 d6bc cb06 433d
000001c0: 07bb 32bc 4040 9ebc e3a3 df3c 2af7 e2bc
000001d0: 274c a53c ed43 e4bc 73da a4bc 17c9 1ebd
000001e0: 2a68 b43c a3fa da3c 3de6 cfbc 2a6f 0a3d
000001f0: f3e3 a63b 338c 8b3b c721 b5bc 7dd4 ffbc
00000200: 0daa f5bb 033b 11bd ed22 e23c 808a aabc
00000210: 43b2 f33c 7065 493d 8ad2 c93c 7a6c d9bc
00000220: 7dcb f4bc b34a 5b3c 8065 413d ca98 b53c
00000230: 0057 6cbb dd68 3dbd ad19 733c 3398 753b
00000240: 4060 453c fa37 29bd e39a eebc da03 e6bc
00000250: b87f 323d d815 203d 20eb e3bc 2a4e 1ebd
00000260: a7a6 483d da7c 7fbc a7a4 563c 7f84 2fbd
00000270: 6d3f 59bc c27e 08bd b0b8 adbc c0f9 47bc
00000280: da01 e83b da04 e9bb eff0 403d 0311 cfbc
00000290: 9a57 0b3b 07dd 4f3c c0ec a73c 8d8e 493c
000002a0: 673e 43bc e20d 08bd 8f8e 13bd 9d74 22bd
000002b0: b72e 093d 0080 fe3b 4d2c fa3b 7b5c 4cbd
000002c0: 9ab7 51bb 676b 4a3b c0ef 30bc 7a14 a73c
000002d0: c793 d33c 05c4 19bd 3a4e 293c 0f35 2e3d
000002e0: 8d1a ef3b bab8 42bd 30d5 a43c b299 1a3d
000002f0: 770d edbc cd37 fa3b aaff c63c 0dfd c73b
00000300: 9061 44bd 6770 76bc 9dd7 883c baa2 a4bc
00000310: 6007 7f3c 30d1 213d f84a 273d f3f0 f1bc
00000320: 55ac 1b3d 1aa7 d1bb fd5c 283d 67e6 7cb8
00000330: d7b8 80bc 8d2a eabb 33e7 5f3c 80f3 243c
00000340: 0a6c d8bc 83c3 bf3c ca26 adbc 9b4d 053d
00000350: 73d2 253d 0809 493d 229c 1fbd db69 263d
00000360: 5aab 06bc c81d 1dbd 5ada a93b 0516 31bd
00000370: 8812 093d 5a90 bb3c e75a 353c bd65 ee3c
00000380: 006c 3fbc b89a 3e3d 9dce 96bc 6b66 33bd
00000390: 9a91 c6bc 3094 263d 2324 fbbc 6f42 23bd
000003a0: e7fe 01bc 5dc4 1d3d 40be fabb 1d6e 0d3d
000003b0: 4d9f c23b 13fe 473d 4de2 9bbb 00fc fb3a
000003c0: 2d43 263d 43da bf3c 3533 03bd 23b4 ecbc
000003d0: 479c 233d 03d9 1e3d cdb1 2c3b 3826 2cbd
000003e0: d812 313d cf5f 483d 40f6 8c3c e7a9 12bc
000003f0: 1f12 45bd f382 eabc 33a9 feba fab9 e0bc

fc1.bias f4 [256]
-0.00034312607 0.01277631 -0.02864315 -0.033134844 -0.010066277 0.025950586 -0.01344381 0.040387023
0.037374385 -0.004450172 -0.040513415 0.013625801 0.014231301 0.0045733214 0.037375182 -0.04173981
-0.031523027 0.0320094 -0.01134609 -0.037099965 0.02343148 -0.040744096 0.034181714 -0.0028591217
0.014201797 0.019931782 -0.015364069 0.00116629 -0.007852239 -0.018989056 0.020795971 -0.0036385953
-0.04938997 -0.031555314 0.03427688 0.02089262 0.030600447 0.033536375 0.02219904 -0.016918737
0.022520721 0.0058287024 0.045079183 0.038877167 0.01431976 -0.027280886 -0.0025764524 0.04310854
-0.0043151914 -0.010884041 0.040955245 0.04062534 -0.029449958 0.02912957 -0.029230118 -0.031309642
0.04405291 0.043023925 -0.04552969 0.03102612 -0.018144174 0.006188202 0.049183346 0.017770916
0.04032108 -0.04297645 0.015449017 0.009493834 0.037952524 -0.004636252 0.042441953 -0.012857455
0.00020520687 0.047682207 -0.046311427 0.016743785 0.045860767 0.019638032 0.038100112 -0.025147563
-0.03024661 0.012522466 0.0036249578 0.03386242 -0.035594255 0.0019523979 -0.048878174 0.020669026
-0.022851342 0.009343606 -0.018963415 0.0135758165 -0.034137316 -0.035842855 -0.03485434 -0.03890909
0.043811377 0.03913903 0.031096578 0.030683322 0.009763503 -0.005939567 0.044708896 -0.021270508
0.0035277307 -0.0015945792 -0.018223334 0.02321837 -0.013243091 0.011798876 -0.00027998685 0.033700895
-0.038060036 -0.03865075 -0.0384534 0.01052689 -0.036380798 -0.03858025 0.015913052 0.041882414
0.022680461 0.032613467 -0.002704388 0.024844104 -0.04061391 -0.007863158 -0.02953356 0.020249117
0.035532862 0.048591357 -0.0016666055 0.029811962 -0.04939101 0.046087172 0.04510055 -0.04995043
0.013028222 0.039825458 -0.0037274302 0.026608055 -0.03974515 -0.04126337 -0.0023187995 -0.0116830645
0.03911083 -0.0001975596 0.02721483 0.009935081 0.0058563175 -0.0148279015 -0.030170292 -0.006838161
0.04504503 -0.032044668 0.02685907 0.02482806 -0.047462326 0.031003088 0.047156747 -0.0008484304
0.003218794 0.035011977 0.015042836 0.015539992 -0.004492152 0.0014387906 -0.025475789 -0.00035332443
0.04362465 -0.040447146 -0.047749992 0.044261664 0.007796824 0.006976265 0.00064037443 0.002107948
0.026737666 -0.016620023 -0.0014450013 0.043802608 -0.021952344 0.024816442 0.034703802 0.032185107
-0.029844344 0.012540317 0.01052618 0.019725729 -0.03489945 0.02778027 0.044857737 0.020888025
-0.014591313 -0.026023483 0.046148945 -0.033897348 -0.022000803 0.038643956 0.048464544 -0.012321013
0.017786348 0.0038065077 -0.035909653 -0.028090997 -0.038897317 0.02286358 -0.030212944 -0.036308117
-0.011730814 -0.010306197 0.018824255 -0.007825935 -0.03736 0.016305704 -0.04276949 0.049248435
0.033569403 0.00882054 0.044578295 0.047914293 -0.031477768 -0.0031931698 0.04595971 0.01661606
0.041518748 0.029690493 -0.029033083 -0.038605656 -0.028190553 -0.016900111 -0.029230857 -0.009973997
-0.005164546 -0.007119858 -0.02076242 0.02189982 0.023279954 0.016430974 -0.021178294 0.041958954
-0.03415848 -0.002176714 0.03091672 -0.009299278 0.033039164 -0.026911277 0.031740066 -0.0063117086
-0.014019275 -0.03895254 -0.03271226 0.005343658 -0.032313433 -0.0019784512 -0.04351179 0.038838875
00000000: 9ae5 b3b9 ba53 513c 0aa5 eabc 67b8 07bd
00000010: 07ed 24bc 5396 d43c 6d43 5cbc dd6c 253d
00000020: e215 193d c0d2 91bb 65f1 25bd c03e 5f3c
00000030: 672a 693c cddb 953b b816 193d 5df7 2abd
00000040: 4a1e 01bd 4a1c 033d f3e4 39bc 22f6 17bd
00000050: 60f3 bf3c 48e3 26bd 2002 0c3d 1a60 3bbb
00000060: a7ae 683c fa47 a33c 93b9 7bbc 33de 983a
00000070: ada6 00bc f08e 9bbc 505c aa3c 8075 6ebb
00000080: 234d 4abd 2540 01bd ea65 0c3d 0027 ab3c
00000090: caad fa3c 705d 093d c3da b53c 2a99 8abc
000000a0: 607d b83c b3fe be3b f3a4 383d aa3d 1f3d
000000b0: 6d9d 6a3c 2a7c dfbc b3d9 28bb 9592 303d
000000c0: 7366 8dbb fa52 32bc b0c0 273d c266 263d
000000d0: 0a41 f1bc 23a1 ee3c 0074 efbc 8a3e 00bd
000000e0: d370 343d db39 303d 577d 3abd 7d2a fe3c
000000f0: 17a3 94bc 67c6 ca3b 7a74 493d 5094 913c
00000100: b727 253d 1308 30bd e01d 7d3c 078c 1b3c
00000110: 1b74 1b3d b3eb 97bb 9dd7 2d3d 13a8 52bc
00000120: cd2c 5739 6b4e 433d 0db1 3dbd 432a 893c
00000130: 80d8 3b3d f0df a03c dd0e 1c3d 4302 cebc
00000140: bdc7 f7bc 072b 4d3c b390 6d3b 52b3 0a3d
00000150: 48cb 11bd 9ae7 ff3a 7b34 48bd 1752 a93c
00000160: bd32 bbbc ed15 193c 2a59 9bbc 1a6d 5e3c
00000170: 92d3 0bbd f5cf 12bd 6dc3 0ebd 235f 1fbd
00000180: 8f73 333d 3f50 203d 40be fe3c 975b fb3c
00000190: 1af7 1f3c b3a0 c2bb ad20 373d 7d3f aebc
000001a0: 8031 673b 3301 d1ba 1a49 95bc 7334 be3c
000001b0: 8df9 58bc 1350 413c 33cb 92b9 f309 0a3d
000001c0: d7e4 1bbd 4050 1ebd 5081 1dbd fa78 2c3c
000001d0: 0804 15bd 5306 1ebd 175c 823c e58c 2b3d
000001e0: 60cc b93c b395 053d 1a3c 31bb dd85 cb3c
000001f0: c55a 26bd 7ad4 00bc 5df0 f1bc 7ae1 a53c
00000200: e88a 113d bb07 473d 0072 daba 3738 f43c
00000210: 3a4e 4abd e7c5 3c3d 5bbb 383d d298 4cbd
00000220: 5374 553c 0520 233d e747 74bb 23f9 d93c
00000230: cfcb 22bd c803 29bd 00f7 17bb 536a 3fbc
00000240: ad32 203d 0028 4fb9 a3f1 de3c c0c6 223c
00000250: 5ae6 bf3b baf0 72bc b027 f7bc a712 e0bb
00000260: 2381 383d 4541 03bd 8d07 dc3c 3764 cb3c
00000270: db67 42bd 30fa fd3c 6f27 413d 3369 5eba
00000280: 67f2 523b b868 0f3d 3a76 763c 739b 7e3c
00000290: e732 93bb cd95 bc3a 9ab2 d0bc 673e b9b9
000002a0: c3af 323d e8ab 25bd 7f95 43bd b84b 353d
000002b0: 807c ff3b 2799 e43b cdde 273a 8025 0a3b
000002c0: f308 db3c b726 88bc 3366 bdba 5d6a 333d
000002d0: 67d5 b3bc da4b cb3c 9325 0e3d 88d4 033d
000002e0: 207c f4bc e775 4d3c 0076 2c3c da97 a13c
000002f0: baf2 0ebd 7393 e33c bfbc 373d 5d1d ab3c
00000300: 6710 6fbc 332f d5bc ad06 3d3d f2d7 0abd
00000310: 073b b4bc 2049 1e3d c282 463d 13de 49bc
00000320: adb4 913c 9a76 793b 0016 13bd 171f e6bc
00000330: cb52 1fbd 674c bb3c 2381 f7bc d2b7 14bd
00000340: 9a32 40bc 53db 28bc 5335 9a3c 5a38 00bc
00000350: cd06 19bd 8a93 853c 102f 2fbd bab8 493d
00000360: 1280 093d 0784 103c bb97 363d c741 443d
00000370: d5ee 00bd 8044 51bb 4040 3c3d 671e 883c
00000380: 900f 2a3d 7a39 f33c cad6 edbc f720 1ebd
00000390: e0ef e6bc 1a72 8abc 8d75 efbc fa69 23bc
000003a0: 5a3b a9bb b34d e9bb f315 aabc 4067 b33c
000003b0: 9ab5 be3c 409a 863c 1a7e adbc 27dd 2b3d
000003c0: c3e9 0bbd 33a7 0ebb 1045 fd3c 005c 18bc
000003d0: 1354 073d 0a75 dcbc df01 023d 73d2 cebb
000003e0: 1ab1 65bc b38c 1fbd 4afd 05bd da19 af3b
000003f0: 175b 04bd e7a8 01bb 6b39 32bd 8315 1f3d

fc2.weight f4 [10, 256]
0.038472585 0.05809392 0.055012308 0.04665067 -0.050386995 -0.010326147 -0.044594005 0.01827044
-0.050760783 0.06178519 0.011268839 -0.02501452 0.05057835 -0.046066597 -0.012282692 0.016876906
0.04825511 -0.039948776 -0.017811835 -0.00069986284 0.015881091 0.022034198 0.034483984 -0.0521022
-0.0034113824 0.02558253 -0.0053003207 -0.007364765 0.058053143 0.018149376 -0.012296878 0.01006332
0.009418227 -0.05201108 -0.047972172 -0.0024410263 0.0035052001 -0.03219658 -0.019799188 -0.034571014
0.015265517 0.055032715 0.011220738 0.014206208 0.023152985 -0.04773117 0.027098864 -0.06206426
0.0441444 -0.0057907924 -0.025229596 -0.0012983158 -0.047308877 -0.00023873895 0.053524666 -0.03886812
0.0034271479 0.048583567 -0.013209052 -0.05665043 0.008812696 -0.0016388372 -0.05142697 -0.032241732
-0.0403051 -0.04758682 -0.05730883 -0.006695457 0.031162843 0.02548132 0.013522692 -0.022499189
-0.055700146 -0.014177375 0.059030503 -0.015266128 0.047700576 -0.044933625 0.025950707 0.042121753
-0.010065824 0.041456535 0.05421903 -0.05441732 0.045824125 -0.06033022 0.04398127 0.035210595
0.030889459 0.028844804 0.054950625 0.05562505 -0.042067975 0.06049037 0.04436493 -0.03896395
0.058706224 -0.019064896 0.0066870674 -0.002672799 -0.010789588 -0.049226977 0.029128328 0.004747674
-0.005452208 0.049024843 -0.042187907 0.02230049 0.024706982 -0.038758673 -0.044324383 0.02641286
-0.031795718 -0.0021452531 -0.043302625 -0.03762438 -0.029501095 -0.014587924 0.0041965097 0.055610515
0.009468488 0.034092844 -0.061840303 -0.030155413 0.010599494 0.056801073 0.032694936 -0.059796974
-0.008571409 0.05467821 0.032303885 -0.012225464 -0.05628878 0.050588474 -0.029630333 0.062181443
0.012762211 0.00033040345 0.044915013 0.04271411 -0.014175169 -0.0051113963 -0.048505165 -0.0009657219
0.006070435 -0.03472925 0.033580728 -0.008648835 0.03783398 0.059767283 0.04572276 -0.0062928945
-0.042389214 -0.024925254 -0.006555274 0.0016133934 -0.029749915 0.051910654 0.050810732 0.03707844
0.054770492 -0.014567398 0.020863742 -0.0005322844 0.061526045 -0.047106385 0.04492297 -0.05564996
-0.009030305 0.04462739 -0.015891775 0.059171796 0.013903804 -0.016531095 0.014341019 -0.0593428
0.060378775 -0.0010216683 -0.038023748 -0.035186246 -0.035940908 0.030969322 -0.03123571 0.0042934865
0.009025857 -0.050572567 0.021970354 -0.001270324 0.058215156 0.044979975 -0.027797543 0.016094916
0.047720343 -0.04482852 -0.05370497 0.058383606 -0.040692374 0.00037021935 0.02472394 -0.047617353
-0.009403504 -0.057927072 0.039217174 -0.03175489 -0.036623016 -0.016704082 -0.059939057 0.025518596
-0.030971281 -0.06059289 0.0579779 0.05569739 -0.055403806 -0.062386334 -0.041100882 -0.006562762
0.026918508 -0.025225073 -0.010839656 -0.021925949 0.023751527 -0.02818209 -0.0041849017 -0.022094555
-0.0032342896 0.010552876 0.051666327 -0.003717415 0.045526616 0.023355678 -0.0020003319 -0.04941731
-0.047106355 -0.0009229928 0.050744124 0.04965753 0.010646984 0.011473924 0.045579597 0.03863228
-0.015063025 0.060628623 -0.024383277 0.050899692 -0.038495257 -0.03393414 0.006065868 0.057142697
-0.058340058 -0.012469128 -0.033873595 0.026487 -0.052023254 -0.060315236 -0.019053228 0.034341305
00000000: 6e95 1d3d e4f3 6d3d 9654 613d c614 3f3d
00000010: 9862 4ebd 002f 29bc 34a8 36bd e4ab 953c
00000020: 8aea 4fbd 7812 7d3d f0a0 383c 40eb ccbc
00000030: 3e2b 4f3d 54b0 3cbd 583d 49bc 7041 8a3c
00000040: 26a7 453d 54a1 23bd 20ea 91bc 0077 37ba
00000050: 1019 823c 1081 b43c 143f 0d3d 1e69 55bd
00000060: 8091 5fbb 7492 d13c 50ae adbb 2054 f1bb
00000070: 22c9 6d3d 00ae 943c d878 49bc a0e0 243c
00000080: e84e 1a3c 9209 55bd 787e 44bd a0f9 1fbb
00000090: 80b7 653b 90e0 03bd e831 a2bc 569a 0dbd
000000a0: 381c 7a3c fc69 613d 30d7 373c 28c1 683c
000000b0: 54ab bd3c c281 43bd 70fe dd3c 1837 7ebd
000000c0: c2d0 343d b0c0 bdbb 4cae cebc 402c aaba
000000d0: f4c6 41bd 0056 7ab9 ae3c 5b3d 2e34 1fbd
000000e0: 009a 603b 90ff 463d c86a 58bc 480a 68bd
000000f0: 2063 103c 40ce d6ba 16a5 52bd e80f 04bd
00000100: f616 25bd 66ea 42bd aabc 6abd 9065 dbbb
00000110: 3849 ff3c 34be d03c 488e 5d3c 3850 b8bc
00000120: d625 64bd 3848 68bc f8c9 713d c81e 7abc
00000130: ae61 433d 520c 38bd 9496 d43c dc87 2c3d
00000140: 20eb 24bc 54ce 293d c614 5e3d b2e4 5ebd
00000150: 14b2 3b3d d21c 77bd b425 343d fc38 103d
00000160: e40b fd3c f04b ec3c e813 613d 18d7 633d
00000170: 784f 2cbd c0c4 773d 00b8 353d aa98 1fbd
00000180: f075 703d fc2d 9cbc 301f db3b 202a 2fbb
00000190: d0c6 30bc 3aa2 49bd 889e ee3c 6092 9b3b
000001a0: 70a8 b2bb 46ce 483d 3acd 2cbd 84af b63c
000001b0: 4c66 ca3c 6ac1 1ebd 7c8d 35bd c85f d83c
000001c0: 3a3c 02bd 6097 0cbb 185e 31bd 061c 1abd
000001d0: 48ac f1bc 3002 6fbc e082 893b dac7 633d
000001e0: b821 1b3c f0a4 0b3d 424c 7dbd 7c08 f7bc
000001f0: 80a9 2d3c 3ea8 683d 20eb 053d aced 74bd
00000200: 186f 0cbc 42f6 5f3d 1451 043d 504d 48bc
00000210: 108f 66bd dc35 4f3d 50bb f2bc f8b1 7e3d
00000220: 9818 513c 003a ad39 cef8 373d fef4 2e3d
00000230: f83e 68bc 807d a7bb 5aad 46bd 8028 7dba
00000240: 80ea c63b 4240 0ebd f28b 093d d8b3 0dbc
00000250: cef7 1a3d 8ace 743d ca47 3b3d a034 cebb
00000260: 50a0 2dbd 0c30 ccbc a0cd d6bb 8078 d33a
00000270: 18b6 f3bc 44a0 543d ea1e 503d 90df 173d
00000280: 0657 603d 18ac 6ebc 70ea aa3c 0089 0bba
00000290: bc02 7c3d a0f2 40bd 2601 383d 36f1 63bd
000002a0: d8f3 13bc 36cb 363d 782f 82bc 205e 723d
000002b0: c8cc 633c 386c 87bc 98f6 6a3c 7011 73bd
000002c0: bc4f 773d 80e9 85ba cabe 1bbd 741f 10bd
000002d0: c636 13bd 60b3 fd3c 08e2 ffbc 60b0 8c3b
000002e0: 30e1 133c 2e25 4fbd 2cfb b33c 0081 a6ba
000002f0: 0473 6e3d ec3c 383d acb7 e3bc 7cd9 833c
00000300: 6876 433d 1c9e 37bd bef9 5bbd a623 6f3d
00000310: 0cad 26bd 001a c239 dc89 ca3c 6a0a 43bd
00000320: 2811 1abc f044 6dbd 30a2 203d 6a11 02bd
00000330: 0402 16bd 00d7 88bc a882 75bd 600c d13c
00000340: 7cb7 fdbc 4030 78bd 3c7a 6d3d f222 643d
00000350: 1aef 62bd d088 7fbd 6659 28bd 700c d7bb
00000360: 3484 dc3c d0a4 cebc d098 31bc 0c9e b3bc
00000370: 9092 c23c 20de e6bc 8021 89bb a4ff b4bc
00000380: 60f6 53bb f8e5 2c3c 12a0 533d e09f 73bb
00000390: 1e7a 3a3d 6854 bf3c 0018 03bb ce69 4abd
000003a0: 98f2 40bd 00f5 71ba 12d9 4f3d b265 4b3d
000003b0: b070 2e3c 20fd 3b3c acb1 3a3d e23c 1e3d
000003c0: e8ca 76bc b855 783d 70bf c7bc 327c 503d
000003d0: 34ad 1dbd 86fe 0abd 30c4 c63b 760e 6a3d
000003e0: fcf5 6ebd 504b 4cbc 0abf 0abd 44fb d83c
000003f0: 5616 55bd 1c0d 77bd 8415 9cbc 78a9 0c3d

fc2.bias f4 [10]
-0.023903199 0.0070929527 -0.010168448 0.009416766 -0.05647763 0.039747313 -0.016341835 0.0020311624
0.00036727637 0.04167234
00000000: a4d0 c3bc 006c e83b 9099 26bc c848 1a3c
00000010: 1655 67bd 14ce 223d 50df 85bc 401d 053b
00000020: 008f c039 9eb0 2a3d
